…
,"height":1000},"executionInfo":{"status":"error","timestamp":1682888251471,"user_tz":240,"elapsed":7012148,"user":{"displayName":"Henry Plante","userId":"07474535296892436715"}},"outputId":"9a62f658-6ccd-466d-e745-26db2da5452a"},"outputs":[{"output_type":"stream","name":"stdout","text":["Currently using device:  cuda:0\n","\n","\n","Model summary:\n","\n","\n","----------------------------------------------------------------\n","        Layer (type)               Output Shape         Param #\n","================================================================\n","            Conv2d-1         [-1, 64, 184, 199]           1,088\n","       BatchNorm2d-2         [-1, 64, 184, 199]             128\n","              ReLU-3         [-1, 64, 184, 199]               0\n","            Conv2d-4          [-1, 128, 92, 99]         131,200\n","       BatchNorm2d-5          [-1, 128, 92, 99]             256\n","         MaxPool2d-6          [-1, 128, 46, 49]               0\n","              ReLU-7          [-1, 128, 46, 49]               0\n","            Conv2d-8          [-1, 256, 23, 24]         524,544\n","       BatchNorm2d-9          [-1, 256, 23, 24]             512\n","             ReLU-10          [-1, 256, 23, 24]               0\n","           Conv2d-11          [-1, 512, 11, 12]       2,097,664\n","      BatchNorm2d-12          [-1, 512, 11, 12]           1,024\n","        MaxPool2d-13            [-1, 512, 5, 6]               0\n","             ReLU-14            [-1, 512, 5, 6]               0\n","           Conv2d-15           [-1, 1024, 2, 3]       8,389,632\n","      BatchNorm2d-16           [-1, 1024, 2, 3]           2,048\n","             ReLU-17           [-1, 1024, 2, 3]               0\n","           Linear-18                  [-1, 512]       3,146,240\n","             Tanh-19                  [-1, 512]               0\n","           Linear-20                    [-1, 8]           4,104\n","================================================================\n","Total params: 14,298,440\n","Trainable params: 14,298,440\n","Non-trainable params: 0\n","----------------------------------------------------------------\n","Input size (MB): 0.56\n","Forward/backward pass size (MB): 80.48\n","Params size (MB): 54.54\n","Estimated Total Size (MB): 135.58\n","--------------------------------
…
